checkpoint_actor.pth (torch_old, 159146 bytes, 6 tensors)

fc1.weight f4 [256, 24]
0.07747364 -0.07110719 0.051241875 -0.078372344 -0.0085814195 -0.054109663 -0.012037294 0.021928893
0.050006457 -0.07753299 -0.02625846 -0.012686847 0.086876124 -0.027107935 -0.037213016 -0.006025763
-0.042267572 -0.15300146 -0.08061241 -0.06472246 -0.037183933 0.37343594 -0.024203917 -0.0041449615
-0.02879522 -0.1932282 -0.0100885965 -0.012376699 0.092970386 -0.02048439 0.0068249414 -0.088721946
-0.07452442 -0.24472503 -0.008156789 -0.04887802 -0.02187855 0.14721352 0.004574461 -0.00028240783
-0.008466695 -0.19685109 0.04774297 0.042719223 0.07833215 0.22031301 0.012909238 -0.06480785
-0.03525168 -0.25480983 0.036586743 -0.021547312 0.49179766 0.056354143 0.0067656706 -0.011205228
-0.051740617 -0.29709962 0.004681551 0.03300131 0.26308453 -0.04834655 0.016465861 -0.016942099
-0.07015528 -0.3060754 -0.01775455 0.0077030673 0.005037028 -0.08683706 0.031258542 0.040548824
0.0465928 0.19767246 -0.009437717 -0.0073528118 0.25331265 0.1985594 -0.028865604 -0.0069113695
0.0235654 0.100544535 0.051737335 -0.09961453 0.102948375 -0.010345048 -0.066217385 -0.09223531
-0.013816735 -0.04081755 -0.08613538 -0.10777543 -0.009811845 -0.2764173 -0.055262253 -0.10073205
-0.04411284 0.10341277 0.017055135 -0.043195166 -0.06896155 -0.18120636 -0.03334636 -0.058730155
0.042608175 0.089941815 -0.00017085824 0.028566036 0.02670541 -0.10277082 0.042271692 0.066642575
-0.011649812 0.1722987 -0.09798319 0.06653778 -0.10412028 -0.01569789 -0.018076088 0.01938943
0.059595622 -0.07115058 0.0029472732 -0.128306 -0.09826142 -0.10674583 0.008099809 -0.17156225
-0.011632178 -0.07253057 0.1026575 -0.113966055 -0.13697371 0.0024828075 -0.0048869327 -0.077398226
0.039894793 -0.070997484 0.08800906 -0.038622722 -0.015864214 0.1642785 -0.0098699685 -0.038141534
0.070239164 0.043850932 0.0025793496 -0.14583512 0.31013045 -0.10021834 -0.04664005 -0.07518978
-0.0009697738 0.11334425 0.009709543 0.058351748 0.17798275 0.014620061 0.008115591 0.0270971
-0.015820464 -0.028058095 -0.012215497 0.07091229 0.11526735 0.022074128 0.04646069 0.07731326
-0.011901662 0.110278085 0.05491843 0.04995885 0.119802974 0.015659926 0.018072885 0.037670877
-0.04239525 0.17267776 -0.045893908 -0.062453683 0.014477082 0.11454936 -0.059597917 -0.06219649
0.04690636 0.19281743 0.039231926 -0.002578765 -0.038433176 0.17376196 -0.040653735 0.017462123
0.00676036 -0.16140047 0.086350575 0.0003145588 -0.0710597 0.04973427 -0.00432643 -0.038453396
0.026135249 -0.064318 0.06964946 0.035686716 -0.03562504 0.052022714 0.07850321 0.033433534
-0.03428607 -0.12703343 0.0055918638 0.08068219 -0.05365474 -0.03222526 -0.021794982 0.053319216
0.004709902 0.036719367 -0.09406719 -0.0054393816 0.038360618 0.14089511 -0.10366953 0.023028294
-0.052566964 -0.023440514 0.035842594 -0.026091272 0.11638226 0.11069953 0.026277373 -0.0023127093
0.0450665 -0.024866704 0.08689953 -0.043519203 0.056529887 0.031171832 0.07911288 -0.029569604
-0.12791212 0.17836227 0.0015351104 -0.016542967 0.14619844 0.022316217 -0.0018359418 0.0051993504
-0.040457398 0.16357592 0.045188352 0.07686402 0.06949919 0.17649348 -0.07127964 0.07422981
00000000: 80aa 9e3d a5a0 91bd 00e3 513d ae81 a0bd
00000010: 1599 0cbc 18a2 5dbd 1238 45bc 39a4 b33c
00000020: 92d3 4c3d 9ec9 9ebd fb1b d7bc 7edc 4fbc
00000030: 1cec b13d 7611 debc ad6c 18bd c473 c5bb
00000040: c320 2dbd 6aac 1cbe 1f18 a5bd 368d 84bd
00000050: 2e4e 18bd ff32 bf3e 4b47 c6bc 75d2 87bb
00000060: f4e3 ebbc 9ddd 45be a44a 25bc a3c7 4abc
00000070: 4267 be3d e1ce a7bc c2a3 df3b dab3 b5bd
00000080: 42a0 98bd 3399 7abe 0da4 05bc 5234 48bd
00000090: a53a b3bc 24bf 163e 5ce5 953b 2310 94b9
000000a0: e5b7 0abc 5593 49be 228e 433d 5afa 2e3d
000000b0: 9b6c a03d bc99 613e 4581 533c fab9 84bd
000000c0: 1164 10bd 6f76 82be fbdb 153d fd83 b0bc
000000d0: e7cc fb3e 9ad3 663d 8fb2 dd3b 2296 37bc
000000e0: f8ed 53bd 711d 98be b267 993b 622c 073d
000000f0: 04b3 863e 0807 46bd 6ae3 863c 28ca 8abc
00000100: 92ad 8fbd eab5 9cbe fd71 91bc 036a fc3b
00000110: a70d a53b a1d7 b1bd f508 003d 8616 263d
00000120: 18d8 3e3d a66a 4a3e a7a0 1abc dbef f0bb
00000130: 32b2 813e 2853 4b3e 8f77 ecbc c578 e2bb
00000140: 3a0c c13c 4bea cd3d 87ea 533d b402 ccbd
00000150: 99d6 d23d 477e 29bc fb9c 87bd dee5 bcbd
00000160: 965f 62bc 4e30 27bd bf67 b0bd 5db9 dcbd
00000170: dcc1 20bc 9186 8dbe ac5a 62bd 9b4c cebd
00000180: aaaf 34bd 13ca d33d 36b7 8b3c 6aed 30bd
00000190: b73b 8dbd 298e 39be 3196 08bd 088f 70bd
000001a0: e985 2e3d 6a33 b83d 6928 33b9 5203 ea3c
000001b0: 4ec5 da3c 8279 d2bd 1525 2d3d e77b 883d
000001c0: dade 3ebc 126f 303e 69ab c8bd f644 883d
000001d0: 033d d5bd dd98 80bc 4e14 94bc 95d6 9e3c
000001e0: 8a1a 743d 65b7 91bd 0a27 413b a662 03be
000001f0: 493d c9bd 8f9d dabd 10b5 043c 04ae 2fbe
00000200: e494 3ebc e88a 94bd 183e d23d 0967 e9bd
00000210: d642 0cbe 99b6 223b 9022 a0bb f682 9ebd
00000220: b968 233d 2167 91bd 183e b43d dc32 1ebd
00000230: abf5 81bc a038 283e a6b5 21bc 4c3a 1cbd
00000240: 8dd9 8f3d 099d 333d 4e0a 293b cd55 15be
00000250: 6bc9 9e3e 463f cdbd a309 3fbd 19fd 99bd
00000260: 6b38 7eba 0821 e83d c614 1f3c 3e02 6f3d
00000270: 1c41 363e fb88 6f3c 41f7 043c bdfa dd3c
00000280: eb99 81bc 17da e5bc 8223 48bc 763a 913d
00000290: 4a11 ec3d cdd4 b43c 914d 3e3d 6a56 9e3d
000002a0: 30ff 42bc 7ad9 e13d 26f2 603d a7a1 4c3d
000002b0: 435b f53d 3f49 803c 960d 943c c74c 1a3d
000002c0: a4a6 2dbd 70d2 303e 40fb 3bbd 6fcf 7fbd
000002d0: 4831 6d3c db98 ea3d f21c 74bd bfc1 7ebd
000002e0: e220 403d ef71 453e a8b1 203d 7f00 29bb
000002f0: 1b6c 1dbd a8ee 313e 8884 26bd ba0c 8f3c
00000300: 0386 dd3b 2a46 25be 92d8 b03d 5eeb a439
00000310: bf87 91bd 29b6 4b3d bac4 8dbb 4f81 1dbd
00000320: 9719 d63c 28b9 83bd 60a4 8e3d 3c2c 123d
00000330: 90eb 11bd c515 553d 4ac6 a03d 9af1 083d
00000340: 8d6f 0cbd 0d15 02be f43b b73b b43c a53d
00000350: 13c5 5bbd a2fe 03bd 648b b2bc 4065 5a3d
00000360: 8655 9a3b 0c67 163d 4da6 c0bd d73c b2bb
00000370: 0620 1d3d cf46 103e b150 d4bd d5a5 bc3c
00000380: 7550 57bd 5206 c0bc afcf 123d 5dbd d5bc
00000390: d359 ee3d 6fb6 e23d a543 d73c d390 17bb
000003a0: a697 383d 42b5 cbbc 61f8 b13d 3141 32bd
000003b0: e28b 673d 125c ff3c ef05 a23d f43b f2bc
000003c0: 65fb 02be 99a4 363e c235 c93a 1e85 87bc
000003d0: 0bb5 153e 80d0 b63c fca3 f0ba 505f aa3b
000003e0: a8b6 25bd 7280 273e 6c17 393d e26a 9d3d
000003f0: 9755 8e3d b5ba 343e 0ffb 91bd cc05 983d

fc1.bias f4 [256]
0.14095847 -0.104763225 0.2168654 -0.13413276 0.1699485 0.09473117 0.031025572 -0.27667066
0.03987353 0.11448082 -0.21112283 0.09737941 -0.19246742 -0.17858158 0.08111557 0.17147617
0.17891282 -0.12377664 -0.19510028 -0.030122906 0.0050344085 -0.09114179 0.015858708 -0.06794468
0.15124317 0.03143977 0.059073098 0.15477537 -0.077946104 0.14596488 -0.16191265 -0.0959704
0.0763824 0.3481021 0.063716576 -0.048365653 -0.21000756 0.10041914 0.049222622 -0.078548335
0.1962116 0.075224504 -0.16755007 -0.025553448 0.08544639 -0.111292414 -0.14795497 0.15146579
0.10363251 0.0029208239 0.06503441 0.2570076 -0.022640387 -0.015256912 0.10331001 0.17769325
0.08790966 -0.105791956 -0.06844616 0.09757652 -0.12035269 0.11781981 -0.11245238 -0.21317445
0.13431965 -0.13091266 -0.14925279 0.20667551 -0.10338293 -0.12989675 -0.052140113 0.00391108
-0.14102705 -0.054140147 -0.12113311 -0.0008306026 0.12952872 -0.103922315 -0.26710805 0.05012965
-0.103875995 0.058216795 0.018345973 0.1601563 -0.123020984 -0.022646353 -0.22847787 0.04825461
0.077799276 0.01842909 0.09304269 0.3585645 -0.13774727 0.024342258 0.21967973 0.061608903
-0.1474955 -0.11338526 -0.047707982 0.029639078 0.09765645 0.10932712 -0.14094618 0.015856983
-0.02216 0.13250421 0.016470017 0.097872816 0.029589461 -0.132594 -0.07583604 -0.21918961
0.0015387502 -0.048848044 -0.21817479 0.17650416 0.10762164 -0.037204415 -0.026041456 -0.050500173
0.02609861 0.22231908 -0.06350195 0.16196354 0.0538003 -0.039835215 0.20364992 0.053183883
0.12885219 -0.042911038 0.15157239 -0.27523038 0.22284316 -0.08771009 0.3349839 0.11890698
-0.12669009 -0.13857065 0.053015392 0.15846223 -0.1708087 0.08630278 -0.045771487 0.16866462
-0.0015543208 -0.25728428 0.094627 -0.23643325 0.09025807 0.0011498337 0.20150666 -0.015012239
0.16302808 -0.16330016 0.16249089 -0.2468097 0.025414228 0.034171857 -0.20493047 0.14213587
0.046236902 0.040646266 -0.040811736 -0.10159771 -0.11870532 -0.205151 0.018193541 0.15965493
-0.025831243 -0.094361335 -0.052040864 0.047699414 -0.062166028 -0.17174162 0.104316756 0.25945377
-0.066764034 -0.05710381 0.17410393 0.13582757 0.14511324 0.1642405 0.06980102 -0.23087846
0.18547784 0.1453654 0.17654121 -0.16854976 0.11786847 0.11642948 0.088889115 0.04791076
-0.11066858 -0.04812492 0.11323397 -0.039544936 -0.14424548 0.042844437 -0.1896227 -0.1971987
0.21069576 -0.29829714 0.12307903 -0.17992261 -0.19135414 0.08327634 -0.0019592524 -0.0134357875
0.13446471 -0.076566406 -0.14311711 0.17451155 0.036369957 -0.070803106 0.0035330825 0.117547125
0.09774667 -0.04293494 0.0340801 0.04926568 0.097389266 -0.078097016 0.018683035 -0.029412646
-0.07922598 0.14785558 -0.002350579 -0.15988173 -0.1203725 0.29633552 -0.0014518984 0.16560598
0.10862883 0.19522147 -0.052704677 0.04435039 -0.048394646 -0.17274092 -0.04854398 0.16287218
0.03932787 -0.09700738 -0.04869103 0.0020654476 -0.07218588 -0.063065745 0.23056084 0.03855229
0.018025698 0.07808583 -0.14074239 0.11197669 0.13496983 0.04569899 0.046329983 0.019789506
00000000: 6b57 103e 1a8e d6bd f711 5e3e 195a 09be
00000010: fb06 2e3e 6a02 c23d 5729 fe3c c7a7 8dbe
00000020: 6d52 233d ec74 ea3d 9530 58be db6e c73d
00000030: 2e16 45be 17de 36be ec1f a63d 7397 2f3e
00000040: ec34 373e 9b7e fdbd 5ec8 47be 50c4 f6bc
00000050: aef7 a43b 8ca8 babd 1fea 813c 9526 8bbd
00000060: 7ddf 1a3e fdc6 003d a2f6 713d 6f7d 1e3e
00000070: 35a2 9fbd d177 153e 6ecc 25be 218c c4bd
00000080: 606e 9c3d 703a b23e d67d 823d 101b 46bd
00000090: 390c 57be 8da8 cd3d a99d 493d f3dd a0bd
000000a0: b2eb 483e 4e0f 9a3d 3f92 2bbe 7755 d1bc
000000b0: 84fe ae3d 47ed e3bd 8281 17be d919 1b3e
000000c0: 483d d43d 4b6b 3f3b c330 853d 8096 833e
000000d0: 5578 b9bc 21f8 79bc 3394 d33d 38f5 353e
000000e0: fb09 b43d 74a9 d8bd 802d 8cbd 33d6 c73d
000000f0: 797b f6bd 834b f13d 6f4d e6bd 674a 5abe
00000100: 178b 093e f80d 06be b9d5 18be bfa2 533e
00000110: 6eba d3bd a703 05be df90 55bd 8428 803b
00000120: 6569 10be 0fc2 5dbd a314 f8bd ccbc 59ba
00000130: 2da3 043e 39d5 d4bd 63c2 88be bf54 4d3d
00000140: f0bc d4bd bc74 6e3d 4b4a 963c 0300 243e
00000150: 6df2 fbbd d884 b9bc 1af6 69be a0a6 453d
00000160: 3a55 9f3d 9af8 963c 2a8d be3d c495 b73e
00000170: 9f0d 0dbe 6a69 c73c b9f3 603e 9e59 7c3d
00000180: 0f09 17be 8836 e8bd 7269 43bd a7cd f23c
00000190: 1b00 c83d e6e6 df3d 3254 10be 81e6 813c
000001a0: e388 b5bc 2faf 073e 21ec 863c 8b71 c83d
000001b0: 9965 f23c b9c6 07be ed4f 9bbd 3e73 60be
000001c0: e4af c93a e314 48bd 3669 5fbe 82bd 343e
000001d0: bc68 dc3d a863 18bd e454 d5bc 45d9 4ebd
000001e0: c1cc d53c 9da7 633e 4f0d 82bd c5d9 253e
000001f0: b45d 5c3d 402a 23bd 9b89 503e 58d7 593d
00000200: d4f1 033e 7cc3 2fbd cb35 1b3e ffea 8cbe
00000210: ff30 643e 59a1 b3bd 0283 ab3e 8185 f33d
00000220: 0cbb 01be 77e5 0dbe ab26 593d ec43 223e
00000230: 7ae8 2ebe 83bf b03d e27a 3bbd 6bb6 2c3e
00000240: 5aba cbba c4ba 83be cdcb c13d 8f1b 72be
00000250: 39d9 b83d 04b6 963a c357 4e3e e5f5 75bc
00000260: d5f0 263e 2838 27be 0364 263e afbb 7cbe
00000270: 8031 d03c caf7 0b3d 4bd9 51be 118c 113e
00000280: e862 3d3d b37c 263d 352a 27bd 7612 d0bd
00000290: c61b f3bd 1b13 52be 9f0a 953c 957c 233e
000002a0: 0b9c d3bc 8440 c1bd cd28 55bd 7660 433d
000002b0: cea1 7ebd 09dd 2fbe 06a4 d53d 20d7 843e
000002c0: 95bb 88bd afe5 69bd 4d48 323e 6216 0b3e
000002d0: 9198 143e a92e 283e d6f3 8e3d 676b 6cbe
000002e0: e7ed 3d3e abda 143e 38c7 343e 4f98 2cbe
000002f0: 0665 f13d 9472 ee3d 7f0b b63d 133e 443d
00000300: 35a6 e2bd a31e 45bd 36e7 e73d dff9 21bd
00000310: 16b5 13be a67d 2f3d 742c 42be 75ee 49be
00000320: a1c0 573e 67ba 98be dc10 fc3d a23d 38be
00000330: 57f2 43be c98c aa3d cd66 00bb c721 5cbc
00000340: 1eb1 093e d9ce 9cbd 4b8d 12be 28b3 323e
00000350: aaf8 143d 3801 91bd 4a8b 673b 8cbc f03d
00000360: 682f c83d 8cdc 2fbd 9397 0b3d cfca 493d
00000370: 0674 c73d 54f1 9fbd 2a0d 993c caf2 f0bc
00000380: 3b41 a2bd 7467 173e 2c0c 1abb 09b8 23be
00000390: db85 f6bd 4ab9 973e a04d beba 9d94 293e
000003a0: cb78 de3d 23e8 473e dce0 57bd c1a8 353d
000003b0: 7739 46bd ffe2 30be 0dd6 46bd f7c7 263e
000003c0: 4316 213d ceab c6bd 3f70 47bd 765c 073b
000003d0: 31d6 93bd 9d28 81bd 2418 6c3e 02e9 1d3d
000003e0: a1aa 933c 77eb 9f3d c61e 10be 0954 e53d
000003f0: 8835 0a3e dd2e 3b3d 82c4 3d3d 9a1d a23c

fc2.weight f4 [128, 256]
0.1570608 0.10207414 -0.12760352 -0.0521761 0.008592691 -0.071457714 0.080490425 0.0052301916
0.031465117 -0.10564876 0.13369785 0.07519109 0.06308339 -0.031701174 -0.15263355 0.07000655
-0.19271353 -0.034036793 -0.028346255 0.10184264 0.0022332033 -0.05785833 0.07507889 0.13922743
0.08811448 0.09489524 0.0093404045 -0.07322119 0.015686156 0.042661786 0.117080435 0.023312155
-0.09871969 -0.010438516 0.11195075 -0.0065338532 0.10709393 0.08089981 0.0629953 -0.03393336
-0.06707909 0.11886409 0.15187491 0.03925397 0.09824181 -0.043624427 0.13082765 -0.054944873
-0.010776891 -0.17636932 0.07621806 0.5306559 0.072759666 0.08323607 -0.193806 -0.14400211
0.142297 0.0029121432 -0.04927135 0.070220366 0.10226718 0.04078391 -0.10315757 0.13528986
0.031486906 -0.06515455 -0.03676657 0.042065952 -0.16746835 0.14848284 0.006010898 0.050279845
0.056310833 0.015156443 0.09494904 -0.01930924 0.030223407 -0.06607477 -0.010160115 0.0511349
-0.011911244 0.06401638 -0.019634003 -0.14260463 0.0038578128 0.18150733 -0.01602385 0.07937
-0.15687715 -0.033622783 -0.020941075 -0.08987187 -0.0019061754 0.014121593 0.019389002 0.1669888
-0.087585814 -0.11902678 -0.15239967 -0.04144873 -0.012798347 -0.022550104 -0.18451141 0.107162595
0.114068255 0.07161769 -0.045285832 -0.081627324 -0.0085223075 0.092024565 -0.23224056 0.06936838
-0.16032745 0.1222357 0.047411967 0.2833074 0.0077968487 -0.039472934 0.09409688 0.110722125
-0.0769195 -0.008470077 -0.0069883624 -0.123004675 0.101820804 -0.44921473 -0.07115418 0.027879156
0.13098799 0.10617713 0.14263383 -0.08181636 -0.11207987 -0.14117989 -0.2166992 -0.07326525
0.042184327 -0.43192154 0.11790376 -0.16232724 0.009584595 -0.20956229 -0.014274796 0.13740766
0.029523477 -0.08249556 -0.097994104 0.23163468 0.08489431 0.0695237 0.0075338143 -0.06458834
-0.0077529415 0.041000325 0.19101684 0.05845897 0.09159615 0.052769143 0.012590059 0.12917157
-0.051355362 0.17723703 -0.042173732 0.13922141 0.17674433 -0.015703285 -0.20803253 0.0731512
0.06728336 -0.4808385 0.0047961995 -0.003477266 -0.07428016 0.05045185 -0.032998998 0.07633962
0.02746197 -0.037705075 -0.11967604 0.18345563 0.022618828 0.11047779 0.0676105 -0.003906699
0.11273934 0.03160147 -0.047179397 -0.054175798 -0.05184118 -0.099673994 -0.1420313 0.0665483
0.08888755 -0.044626627 0.054363966 -0.17188706 -0.078467295 0.008817093 -0.009085128 0.056739174
-0.09554811 -0.026459415 -0.02931965 0.2358526 -0.16125958 -0.0627446 0.02658579 0.04922227
0.13789187 -0.02821165 0.017370539 0.12213642 -0.020975614 -0.08159814 0.078870244 0.064076066
-0.054781705 0.19067115 -0.09258319 -0.049219072 -0.08994692 0.048967298 -0.009207511 -0.050878342
-0.12942603 0.2076972 -0.038350143 0.07418048 0.116590604 0.14613265 -0.023583397 0.121402055
-0.029306915 0.09770811 -0.04122045 -0.1461526 0.020771906 0.1067175 -0.13259545 0.15821078
-0.08326926 0.24192163 0.110603236 0.0856313 0.09895573 -0.068834685 -0.0042104893 0.065800995
0.18104582 -0.22368366 0.07571822 -0.016537985 0.062300988 0.007886773 0.028731678 -0.38602453
00000000: 8cd4 203e 3f0c d13d 7faa 02be 9bb6 55bd
00000010: 5cc8 0c3c 6c58 92bd 2ad8 a43d 0762 ab3b
00000020: 91e1 003d 615e d8bd 17e8 083e c9fd 993d
00000030: dd31 813d 17d9 01bd f84b 1cbe 985f 8f3d
00000040: b256 45be 2a6a 0bbd 6836 e8bc e092 d03d
00000050: ef5a 123b dbfc 6cbd f6c2 993d a391 0e3e
00000060: 5d75 b43d 7058 c23d 7f08 193c fef4 95bd
00000070: 4180 803c 20be 2e3d dec7 ef3d 22f9 be3c
00000080: 8d2d cabd 4f06 2bbc 6f46 e53d ef19 d6bb
00000090: 1054 db3d cdae a53d ae03 813d b5fd 0abd
000000a0: c360 89bd 046f f33d 1985 1b3e c5c8 203d
000000b0: 0133 c93d 87af 32bd aff7 053e e00d 61bd
000000c0: 8f91 30bc 299a 34be 3718 9c3d 11d9 073f
000000d0: 0503 953d ac77 aa3d 1475 46be 4a75 13be
000000e0: 4eb6 113e a8d9 3e3b c1d0 49bd b2cf 8f3d
000000f0: 7571 d13d 070d 273d 4744 d3bd 6d89 0a3e
00000100: 6af8 003d c06f 85bd 8b98 16bd 594d 2c3d
00000110: d37c 2bbe e30b 183e 11f7 c43b 3df2 4d3d
00000120: 30a6 663d bb52 783c a474 c23d 692e 9ebc
00000130: 1497 f73c 3652 87bd 9c76 26bc d472 513d
00000140: 6127 43bc 051b 833d 7dd7 a0bc f306 12be
00000150: 5cd3 7c3b 0fdd 393e 7344 83bc bd8c a23d
00000160: 67a4 20be 0bb8 09bd 9e8c abbc be0e b8bd
00000170: a2d8 f9ba 415e 673c afd5 9e3c 1dff 2a3e
00000180: 3160 b3bd 50c4 f3bd a90e 1cbe 25c6 29bd
00000190: 28b0 51bc ffba b8bc 8ff0 3cbe 1078 db3d
000001a0: 9e9c e93d 4cac 923d a37d 39bd 3a2c a7bd
000001b0: 26a1 0bbc 6077 bc3d 78d0 6dbe 0211 8e3d
000001c0: e12c 24be b656 fa3d 0d33 423d ab0d 913e
000001d0: b57c ff3b 5fae 21bd ddb5 c03d 48c2 e23d
000001e0: f987 9dbd 14c6 0abc a2fe e4bb e0e9 fbbd
000001f0: 6d87 d03d 79ff e5be 48b9 91bd d462 e43c
00000200: b721 063e 6573 d93d 9a0e 123e 568f a7bd
00000210: 228a e5bd 7691 10be 65e6 5dbe 170c 96bd
00000220: 79c9 2c3d d224 ddbe 8777 f13d 1d39 26be
00000230: b508 1d3c 7f97 56be d5e0 69bc 98b4 0c3e
00000240: 38db f13c 6ff3 a8bd 22b1 c8bd a431 6d3e
00000250: 11dd ad3d 7162 8e3d 37de f63b e446 84bd
00000260: 630c febb f5ef 273d eb99 433e ac72 6f3d
00000270: c396 bb3d 7524 583d 8946 4e3c 8d45 043e
00000280: 005a 52bd a07d 353e 5dbe 2cbd 0f90 0e3e
00000290: 77fc 343e 2da4 80bc 7b06 55be 4cd0 953d
000002a0: dccb 893d 7730 f6be 7029 9d3b d8e2 63bb
000002b0: 3220 98bd 99a6 4e3d f529 07bd f257 9c3d
000002c0: edf7 e03c a370 1abd b618 f5bd cbdb 3b3e
000002d0: 1f4b b93c 2e42 e23d 6077 8a3d c403 80bb
000002e0: e2e3 e63d 8b70 013d 2f3f 41bd 71e7 5dbd
000002f0: 6b57 54bd e121 ccbd a770 11be 7a4a 883d
00000300: ad0a b63d 69ca 36bd c0ac 5e3d 2903 30be
00000310: 76b3 a0bd 9275 103c cad9 14bc 5667 683d
00000320: baae c3bd 6ac1 d8bc c32f f0bc 5883 713e
00000330: 3b21 25be 3e80 80bd 71ca d93c 4a9d 493d
00000340: 8733 0d3e 1e1c e7bc a94c 8e3c a922 fa3d
00000350: 0dd5 abbc ed1c a7bd b986 a13d 503a 833d
00000360: c862 60bd 4c3f 433e 419c bdbd f099 49bd
00000370: 1736 b8bd ef91 483d 1adb 16bc cf65 50bd
00000380: 4288 04be 93ae 543e 0a15 1dbd efeb 973d
00000390: 0ec7 ee3d cca3 153e f831 c1bc a4a1 f83d
000003a0: 0e15 f0bc 311b c83d c6d6 28bd 07a9 15be
000003b0: d829 aa3c b48e da3d 1ac7 07be 0202 223e
000003c0: 1389 aabd 4eba 773e f383 e23d 775f af3d
000003d0: 4da9 ca3d 33f9 8cbd 25f8 89bb acc2 863d
000003e0: 1364 393e 540d 65be 2712 9b3d ab7a 87bc
000003f0: 522f 7f3d 8637 013c b25e eb3c 02a5 c5be

fc2.bias f4 [128]
0.0090589905 0.057045728 0.014266312 0.028645806 -0.0736891 0.071175694 0.17632648 -0.025985705
0.025341228 0.050720923 0.038082194 -0.016900185 0.05103443 0.016575325 -0.025471238 0.07898
0.09410546 -0.016832294 -0.12214253 -0.04732039 0.114427865 0.013200847 -0.026561022 0.037604276
-0.00096014503 -0.097110875 -0.04279573 0.0494915 0.046999957 -0.05119632 0.041093335 -0.0026012773
-0.054641616 0.0059617436 0.02942537 -0.017331252 0.07862648 0.003757146 0.024188576 -0.07594836
-0.07096352 -0.011841827 -0.048128963 0.027238509 0.043109205 0.034017112 -0.09592941 0.06971276
0.025311988 0.044757243 0.055436626 -0.039195456 0.04309191 -0.032789737 0.019447444 -0.018789254
0.0057992036 0.06460187 -0.00045750482 0.064522296 0.11255386 -0.060448926 -0.060466982 -0.013499697
-0.03706385 0.072325684 -0.016635273 0.041382957 0.005379707 0.04076481 0.085441954 0.0027262045
0.005261437 -0.113149256 0.056158975 0.022903338 0.0945009 0.046265475 0.031635277 -0.110080324
0.024172738 0.026331628 0.03970395 0.021574613 0.024205878 0.06909298 0.014956004 0.02346649
-0.04889923 -0.035583697 -0.028057883 0.0027879234 0.109293446 -0.0898233 0.0046101627 0.06699326
0.061135 -0.091996536 0.08893738 0.03709174 -0.0068460177 0.05406415 0.010695796 0.030152127
-0.046385087 0.04585739 -0.025369145 0.009019597 0.031179694 0.12949556 -0.036812857 -0.004997656
0.03292803 0.10238615 0.009278824 -0.028191403 -0.07354516 0.09066441 0.034838613 0.016649187
0.026323186 0.09815485 0.042765655 -0.00894094 -0.03646372 -0.037139963 -0.05069446 -0.06960704
00000000: 296c 143c c8a8 693d 40bd 693c 9caa ea3c
00000010: 50ea 96bd 90c4 913d ee8e 343e f9df d4bc
00000020: 6898 cf3c bec0 4f3d 13fc 1b3d 4272 8abc
00000030: 7a09 513d fac8 873c 0fa9 d0bc 44c0 a13d
00000040: 5dba c03d e1e3 89bc dd25 fabd 06d3 41bd
00000050: 2859 ea3d 5e48 583c 8096 d9bc f106 1a3d
00000060: 3eb2 7bba 11e2 c6bd 934a 2fbd 99b7 4a3d
00000070: 0783 403d 3cb3 51bd 7c51 283d 317a 2abb
00000080: e3cf 5fbd bb5a c33b 790d f13c 45fa 8dbc
00000090: ec06 a13d 733a 763b 1f27 c63c d08a 9bbd
000000a0: 5255 91bd 3904 42bc e022 45bd 4b23 df3c
000000b0: 4793 303d 8755 0b3d a376 c4bd 90c5 8e3d
000000c0: 165b cf3c 5f53 373d 8411 633d 6a8b 20bd
000000d0: 2581 303d 884e 06bd 3f50 9f3c eceb 99bc
000000e0: 3f07 be3b fc4d 843d 42dd efb9 4424 843d
000000f0: a382 e63d 4b99 77bd 3aac 77bd d52d 5dbc
00000100: 43d0 17bd 7d1f 943d b246 88bc 2d81 293d
00000110: 4148 b03b 00f9 263d 31fc ae3d 1faa 323b
00000120: 2268 ac3b ccba e7bd f406 663d c89f bb3c
00000130: b089 c13d de80 3d3d fe93 013d cb71 e1bd
00000140: e805 c63c 6db5 d73c 9ca0 223d 3ebd b03c
00000150: 684b c63c 9f80 8d3d 070a 753c cc3c c03c
00000160: 8f4a 48bd 36c0 11bd a5d9 e5bc 98b5 363b
00000170: 3ed5 df3d 47f5 b7bd d910 973b c333 893d
00000180: b268 7a3d ae68 bcbd cd24 b63d 82ed 173d
00000190: 8f54 e0bb 5f72 5d3d 6c3d 2f3c 9801 f73c
000001a0: 4afe 3dbd f5d4 3b3d f4d2 cfbc efc6 133c
000001b0: 8f6c ff3c 7c9a 043e 14c9 16bd 61c3 a3bb
000001c0: 8bdf 063d d4af d13d 3506 183c a8f1 e6bc
000001d0: d89e 96bd 43ae b93d efb2 0e3d e063 883c
000001e0: b9a3 d73c 6905 c93d 0a2b 2f3d 057d 12bc
000001f0: fb5a 15bd 1320 18bd fea4 4fbd 238e 8ebd

fc3.weight f4 [2, 128]
-0.080232605 -0.21268862 -0.20382278 -0.024495153 -0.007564736 0.031229408 -0.26085097 0.083919585
0.025788058 -0.04361114 0.036895156 -0.13042739 -0.09075675 -0.061933693 -0.14679636 0.1089579
0.0682166 0.03632389 0.15710971 -0.15657556 -0.3073953 -0.31239688 -0.05145097 -0.036043964
-0.19887902 -0.077539004 -0.08382391 -0.04111274 0.012072893 -0.10193806 -0.102751344 -0.030595854
-0.06913195 -0.21571943 0.15644883 -0.030549804 -0.0013237254 0.013635784 -0.14673851 0.1343763
0.040683478 -0.0019414816 -0.19504419 -0.14753982 0.1705111 -0.24499515 0.14477615 0.031141369
-0.022427738 0.038788214 -0.22137654 -0.15484294 -0.17058647 0.059777338 0.026614739 0.019414864
0.073988244 -0.057837166 -0.10809391 -0.028848264 0.035877123 -0.070682146 -0.012718625 0.03861457
0.05068894 -0.028780293 -0.022412466 0.029371252 0.03571929 -0.048316322 0.027209746 0.061411116
-0.14766881 0.05709858 0.053135134 0.014820343 0.07031717 0.023144608 -0.20732543 0.08148387
-0.030633744 0.07198345 0.094860926 -0.041741673 -0.06226512 0.031977937 -0.25414288 0.027469289
0.02842969 -0.09563603 0.04698831 -0.057086263 -0.057865832 0.282735 -0.04164763 0.21619372
0.043788474 -0.031049836 0.055709098 -0.33573458 0.100930944 -0.09920624 -0.13340582 0.10150918
-0.05385116 -0.14655615 0.1233594 -0.1392494 -0.2122918 0.08689941 0.037373997 -0.13345349
-0.112629734 0.03430101 0.045161586 -0.107179254 0.074840225 -0.2857761 0.04814706 0.037036233
-0.20448568 -0.28806937 -0.13318726 -0.0033782693 -0.048526485 0.04598374 0.13016947 -0.1297395
0.42135212 0.0101171695 -0.3358238 -0.053825106 -0.6573533 0.03974016 -0.12745583 -0.23312093
0.07618719 -0.28550503 -0.073319 -0.27160746 -0.19249937 0.25179103 0.13534616 0.24044108
-0.062412273 0.051469065 0.21421559 -0.42340544 -0.030084368 -0.007822381 -0.10617997 0.0774444
-0.2741475 0.08784078 0.18674903 0.13136432 0.05427074 -0.001532714 0.065788515 0.087631434
0.08362871 -0.12957203 0.09008355 -0.44981456 0.20429702 0.18036598 -0.0604752 0.0979574
-0.09402152 0.3195389 -0.2976353 0.036342 0.2835423 -0.07640964 -0.2951312 0.15658695
-0.23393388 0.35166273 0.07197498 0.06743148 -0.30820316 -0.12120599 0.6725312 -0.23874223
-0.073973686 0.15646444 0.082988225 -0.052015457 0.009303105 -0.33885172 0.10798542 0.02049788
-0.1943881 -0.21387768 0.008219725 0.031614017 -0.016188543 0.5208837 0.0010546948 0.5653285
-0.006986968 -0.12746383 0.24560507 0.2465838 0.106222294 0.032628197 0.22347571 0.17494942
0.044713832 -0.018347742 -0.0074002384 0.12157743 -0.23638731 0.043215368 -0.37124926 -0.01768083
-0.22648191 0.34096712 0.13948643 0.24673313 -0.46934628 -0.033487283 0.27617326 -0.062839955
-0.0823839 -0.54100317 0.013233728 -0.34393817 -0.11666438 0.09138746 0.17469704 -0.10582576
0.19354622 -0.25752097 -0.31365687 -0.1297544 -0.15403049 -0.45392838 0.58382493 0.3198159
0.107058935 0.03430557 -0.4412844 -0.2427263 -0.034952715 -0.14507851 -0.05653756 0.043252446
-0.05471897 -0.46791002 0.0810309 -0.30982748 0.0783614 -0.15128243 0.096113116 -0.75175935
00000000: fe50 a4bd 0ccb 59be ebb6 50be 0faa c8bc
00000010: 9be1 f7bb d1d4 ff3c 428e 85be 08de ab3d
00000020: 7a41 d33c 98a1 32bd 601f 173d c28e 05be
00000030: adde b9bd 2fae 7dbd c951 16be 5225 df3d
00000040: 25b5 8b3d 5cc8 143d 5ee1 203e 5855 20be
00000050: eb62 9dbe 7cf2 9fbe 41be 52bd d6a2 13bd
00000060: f1a6 4bbe c5cc 9ebd dfab abbd d565 28bd
00000070: 62cd 453c e7c4 d0bd 4c6f d2bd 28a4 fabc
00000080: 0d95 8dbd 8ee5 5cbe 1f34 203e 9543 fabc
00000090: db80 adba a068 5f3c 9f42 16be f199 093e
000000a0: b8a3 263d 5079 feba aab9 47be ae14 17be
000000b0: 769a 2e3e 02e0 7abe 3340 143e 2f1c ff3c
000000c0: 60ba b7bc 64e0 1e3d 88b0 62be 268f 1ebe
000000d0: 38ae 2ebe 15d9 743d 2707 da3c ec0b 9f3c
000000e0: 2687 973d aae6 6cbd 5760 ddbd 3253 ecbc
000000f0: e4f3 123d cdc1 90bd c861 50bc 502a 1e3d
00000100: 359f 4f3d a6c4 ebbc 599a b7bc fb9b f03c
00000110: 644e 123d 56e7 45bd f9e6 de3c 398a 7b3d
00000120: 7e36 17be 33e0 693d 3aa4 593d 06d1 723c
00000130: 7302 903d c399 bd3c 1e4d 54be 04e1 a63d
00000140: 9ef3 fabc 0f6c 933d 7246 c23d 51f9 2abd
00000150: b609 7fbd 4cfb 023d 041f 82be 4607 e13c
00000160: 62e5 e83c d3dc c3bd d076 403d 49d3 69bd
00000170: b904 6dbd a4c2 903e b596 2abd e361 5d3e
00000180: 8b5b 333d 3a5c febc 392f 643d 67e5 abbe
00000190: e2b4 ce3d a42c cbbd 899b 08be 0ce4 cf3d
000001a0: 0993 5cbd d112 16be daa3 fc3d 6597 0ebe
000001b0: 0663 59be 51f8 b13d 7a15 193d 08a8 08be
000001c0: 6baa e6bd 377f 0c3d 5bfb 383d cc80 dbbd
000001d0: d545 993d 3f51 92be da35 453d 4eb3 173d
000001e0: b264 51be d47d 93be 3e62 08be f465 5dbb
000001f0: b5c3 46bd 7259 3c3d 254b 053e 6eda 04be
00000200: 77bb d73e 7cc2 253c 19f1 abbe b777 5cbd
00000210: 4e48 28bf 94c6 223d c883 02be 41b7 6ebe
00000220: 0808 9c3d b72d 92be 4628 96bd 2210 8bbe
00000230: 8e1e 45be c1ea 803e 2f98 0a3e 3036 763e
00000240: 03a4 7fbd 3ad1 523d 555b 5b3e 99c8 d8be
00000250: 7e73 f6bc 7229 00bc e274 d9bd 2b9b 9e3d
00000260: 105d 8cbe dee5 b33d 233b 3f3e 5e84 063e
00000270: ff4a 5e3d 59e5 c8ba 21bc 863d 1c78 b33d
00000280: 8745 ab3d 88ae 04be b97d b83d 184e e6be
00000290: 3d33 513e dcb1 383e d8b4 77bd e49d c83d
000002a0: 5b8e c0bd 9a9a a33e a763 98be 59db 143d
000002b0: 752c 913e a87c 9cbd 701b 97be 5458 203e
000002c0: 5d8c 6fbe 230d b43e 9e67 933d 8419 8a3d
000002d0: cecc 9dbe d93a f8bd 012b 2c3f d878 74be
000002e0: 847f 97bd 3738 203e bbf5 a93d 290e 55bd
000002f0: 0d6c 183c f97d adbe 7627 dd3d 2ceb a73c
00000300: ad0d 47be c002 5bbe 07ac 063c b37d 013d
00000310: d69d 84bc a258 053f af3d 8a3a 5eb9 103f
00000320: f0f2 e4bb e185 02be e57f 7b3e 7780 7c3e
00000330: 138b d93d 25a5 053d d1d6 643e f125 333e
00000340: da25 373d 014e 96bc b37d f2bb 96fd f83d
00000350: 840f 72be 9902 313d 6214 bebe 63d7 90bc
00000360: e0ea 67be 3e93 ae3e 88d5 0e3e 9ca7 7c3e
00000370: 284e f0be f629 09bd 9566 8d3e 3cb2 80bd
00000380: e4b8 a8bd 2f7f 0abf 47d2 583c aa18 b0be
00000390: bced eebd 5929 bb3d c8e3 323e 2dbb d8bd
000003a0: fb30 463e cad9 83be a297 a0be 56de 04be
000003b0: 2bba 1dbe 4d69 e8be 8d75 153f e9be a33e
000003c0: b741 db3d ff83 0c3d 07f0 e1be 3e8d 78be
000003d0: 942a 0fbd 768f 14be ee93 67bd 7a29 313d
000003e0: 0021 60bd e791 efbe 87f3 a53d b5a1 9ebe
000003f0: f17b a03d c8e9 1abe f4d6 c43d 4d73 40bf

fc3.bias f4 [2]
-0.04482885 0.009939922
00000000: 759e 37bd 0edb 223c
