checkpoint_critic.pth (torch_old, 160680 bytes, 5 tensors)

fcs1.weight f4 [256, 26]
0	0xbd4bb1d0	-0.049730122
1	0xbc663382	-0.014050366
2	0x3c63c1f1	0.01390122
3	0x3ce66ae2	0.028127138
4	0x3d8d30fd	0.068941094
5	0xbe1a5b39	-0.15073861
6	0xbc7af013	-0.015316027
7	0xbcc3ba46	-0.023892533
8	0xbc76e9b6	-0.0150703695
9	0xbdd06b5c	-0.10176727
10	0xbd3aec4b	-0.045635503
11	0x3d7fa2d1	0.062411133
12	0x3d84f9c9	0.06492955
13	0xbdc703a4	-0.09717491
14	0x3d1ba87b	0.038002472
15	0xbc872276	-0.016495924
16	0x3cf0a82c	0.029377066
17	0xbdfca9b0	-0.12337053
18	0xbd1eb996	-0.038751207
19	0xbafdea07	-0.0019372114
20	0xbd5137f2	-0.051078744
21	0x3c7695ee	0.015050394
22	0x3d0e6588	0.034764796
23	0xbd0db5d5	-0.034597237
24	0x3e5abbc0	0.21360683
25	0xbd734816	-0.05939492
26	0xbd48cbdd	-0.049022544
27	0xbe2cc0ee	-0.16870472
28	0x3ca052ec	0.01957079
29	0xbcb75f4a	-0.022384305
30	0x3cb0a204	0.02156163
31	0x3e482d75	0.1954859
32	0xbc88aeaa	-0.016684849
33	0x3c8eb1f8	0.017418846
34	0x3d4e3750	0.05034572
35	0xbda05c36	-0.07830088
36	0x3cc2b1b8	0.023766384
37	0xbb3e61ca	-0.0029049986
38	0x3d85ac5c	0.065270156
39	0x3e22d7fa	0.15902701
40	0xbd005a6e	-0.03133624
41	0x3c80321e	0.015648898
42	0xbd5cedbd	-0.053937662
43	0xbda357cc	-0.0797573
44	0x3c8ed3f2	0.017435048
45	0x3d1ad17c	0.037797436
46	0x3ccebd8a	0.025236864
47	0xbd84499a	-0.06459351
48	0xbcc74650	-0.02432552
49	0xbd21c37e	-0.039493077
50	0xbea9f300	-0.33193207
51	0xbcbb9959	-0.02290027
52	0x3d401be2	0.04690159
53	0xbda715e8	-0.08158475
54	0xbd1272c8	-0.035753995
55	0xbd32ae40	-0.04362321
56	0x3d8b3730	0.067976356
57	0x3d398884	0.045296207
58	0x3d017558	0.03160605
59	0x3d836544	0.06415799
60	0xbd3c4d76	-0.04597231
61	0x3d3a70b0	0.045517623
62	0x3d0876ca	0.03331641
63	0x3c808151	0.015686663
64	0x3d9dd75f	0.077070944
65	0xbdd4a866	-0.10383682
66	0xbcccc164	-0.02499456
67	0xbc396994	-0.011316676
68	0xbda42837	-0.08015483
69	0x3da270c9	0.07931668
70	0xbd111585	-0.035420913
71	0x3a5912e3	0.00082807074
72	0xbd262fc3	-0.040572893
73	0xbe932ad2	-0.28743607
74	0x3d08efb9	0.033431742
75	0x3cb40080	0.021972895
76	0xbce762e6	-0.0282454
77	0xbb25a128	-0.0025273059
78	0xbd43c349	-0.04779366
79	0xbca11b0c	-0.019666217
80	0x3b6ec545	0.00364335
81	0x3d3b679a	0.0457531
82	0x3ceb15d6	0.028696936
83	0xbd5693f6	-0.0523872
84	0x3bdd623c	0.006756095
85	0xbd3b52de	-0.045733325
86	0xbd173d62	-0.036923774
87	0x3bfc1df0	0.0076939985
88	0x3d3f136a	0.046649374
89	0xbbc18b17	-0.0059064734
90	0xbd5138b4	-0.051079467
91	0x3d61441a	0.054996587
92	0xbd4b6450	-0.049656212
93	0xbc020b13	-0.007937211
94	0xbba17cb4	-0.004928196
95	0xbd919cdf	-0.07109999
96	0x3b15ecd5	0.0022876759
97	0x3c3c7975	0.011503567
98	0x3d545e36	0.05184766
99	0xbdffb78d	-0.124861814
100	0xbc7ea4e3	-0.015542242
101	0xbb5d06f1	-0.0033726061
102	0xbdd7b1f6	-0.1053199
103	0x3b87184c	0.0041227695
104	0x3c9d693f	0.019215224
105	0xbbbb6c1a	-0.005719674
106	0x3c7a1771	0.015264378
107	0x3c511ed6	0.0127636995
108	0xbcf24880	-0.029575586
109	0x3d16febb	0.036864024
110	0xbc01ddda	-0.007926429
111	0xbc9dd093	-0.019264495
112	0x3bb7ca03	0.0056087985
113	0x3d84b1a6	0.06479196
114	0x3b85caec	0.004083028
115	0x3d61a341	0.05508733
116	0x3c8883f0	0.016664475
117	0xbdd896c8	-0.10575634
118	0x3c143b53	0.009047347
119	0x3b80f8b7	0.003935899
120	0xbd6727c4	-0.056434408
121	0xbd82fa4b	-0.06395396
122	0x3c48b364	0.012249801
123	0x3d45534c	0.04817514
124	0xbc9464d0	-0.018114477
125	0xbe925b45	-0.28585258
126	0xbbb147db	-0.005410177
127	0xbb9b4d2c	-0.004739424
128	0xbe889391	-0.26675084
129	0x3cbd6a30	0.023121923
130	0x3cf76f9d	0.030204589
131	0x3d7b7f89	0.061400924
132	0x3d0df96b	0.03466169
133	0x3d9016f7	0.0703563
134	0x3d81fd0d	0.06347094
135	0xbd9bd802	-0.076095596
136	0xbd0f4f3d	-0.034987677
137	0xba96b297	-0.0011497316
138	0x3d8aa0a1	0.06768919
139	0x3d2f8201	0.04284859
140	0xbbb4171c	-0.005495919
141	0x3d884d5e	0.066553816
142	0x3b6c7d80	0.0036085546
143	0xbdfeb125	-0.124361314
144	0x3c4ed894	0.012624878
145	0xbba7aac8	-0.0051167943
146	0x3d508ede	0.0509175
147	0xbd03fd42	-0.032223947
148	0xbcdf282d	-0.027240837
149	0xbd653df9	-0.055967305
150	0xbd4462d2	-0.047945805
151	0xbe63381e	-0.22189376
152	0xbd8dadf4	-0.069179446
153	0xbd152fa5	-0.03642239
154	0x3c3d2b2f	0.01154594
155	0x3d8b33b0	0.06796968
156	0xbd4f8e2e	-0.050672702
157	0xbd83676a	-0.06416209
158	0xbc9ad3a2	-0.018899743
159	0xbd7fe9c9	-0.062478814
160	0xbc8db8ff	-0.017300127
161	0xbe3e91e3	-0.18610339
162	0x3b5b8d26	0.003350088
163	0x3cdec764	0.027194686
164	0xbcd7a7e3	-0.026325172
165	0xbb9cfccb	-0.0047908775
166	0x3d105be1	0.035243873
167	0xbd08b6c6	-0.03337743
168	0xbcada6e0	-0.021197736
169	0xbd164b5f	-0.036692973
170	0xbd4899a3	-0.048974644
171	0x3d7f67e4	0.062354937
172	0x3b964577	0.0045859176
173	0x3d99daa9	0.07512409
174	0x3d579850	0.05263549
175	0xbb831996	-0.004000853
176	0x3da82690	0.0821048
177	0x3e1508e7	0.14554177
178	0xbd46efe0	-0.048568606
179	0x3cd6d550	0.026224762
180	0xbdaab758	-0.08335751
181	0x3d9e050c	0.07715806
182	0x3c0c5e85	0.008567457
183	0x3bfbffc5	0.007690402
184	0x3d057f37	0.032592025
185	0x3d476886	0.048683666
186	0xbc3bda73	-0.011465657
187	0xbd53df83	-0.05172683
188	0xbabf8846	-0.0014612756
189	0x3d35882a	0.04431931
190	0xbcb08eab	-0.021552404
191	0x3cc7e5e7	0.024401618
192	0x3c94ebdc	0.018178873
193	0xbd47182c	-0.048607036
194	0x3ca5a18f	0.020218639
195	0xbda602e4	-0.0810602
196	0xbcfb31d7	-0.030663414
197	0x3c631ee5	0.013862346
198	0x3bc5f66c	0.0060413387
199	0x3d564f99	0.052322004
200	0xb98a966b	-0.0002643348
201	0x3d9569d5	0.072955765
202	0x3d3b99fd	0.04580115
203	0xbd90c217	-0.0706827
204	0x3c18bf2a	0.009322921
205	0x3da5847f	0.08081912
206	0x3e58d0ac	0.21173352
207	0xbdb58618	-0.08863467
208	0xbdbe5573	-0.09293642
209	0x3d87cb57	0.06630581
210	0xbb8f0d19	-0.004365575
211	0x3d39b464	0.04533805
212	0x3cf58357	0.029969854
213	0xbda886c0	-0.082288265
214	0x3aa180ae	0.0012321675
215	0xbc054df6	-0.008136263
216	0x3ca15d29	0.019697743
217	0x3ce99311	0.02851251
218	0x3cc542c0	0.02407968
219	0xbd054ffe	-0.03254699
220	0x3cc4d4b4	0.024027206
221	0xbdce3956	-0.1006953
222	0xbd46e768	-0.04856053
223	0xbcd170a4	-0.025566407
224	0x3cf21019	0.029548692
225	0x3dd94600	0.106090546
226	0x3d0b6147	0.034028318
227	0xbd0ae6f2	-0.033911653
228	0xbd76444b	-0.060123723
229	0x3d867538	0.065653265
230	0xbd7f879d	-0.06238519
231	0xbc0d731d	-0.008633402
232	0xbe0b080d	-0.1357729
233	0x3db59a51	0.08867324
234	0xbb9d4725	-0.004799741
235	0xbde4e479	-0.1117639
236	0xbc9d9dde	-0.019240316
237	0x3cf3690b	0.029713174
238	0xbd0ff482	-0.03514529
239	0xbbca254e	-0.006168998
240	0x3c635593	0.013875383
241	0xbbd94d2e	-0.006631515
242	0xbcfdd0d3	-0.030983364
243	0x3b8b1513	0.0042444556
244	0xb9f4c881	-0.00046688694
245	0xbcc44ed3	-0.023963368
246	0xbd84355d	-0.06455491
247	0xbc323edb	-0.010879244
248	0xbc550561	-0.013001771
249	0x3c81e4f4	0.015856244
250	0x3cd99c6b	0.026563844
251	0x3d051e57	0.032499637
252	0x3ca7db79	0.020490395
253	0xbd1b5610	-0.037923872
254	0x3d5aa9ef	0.053384718
255	0x3e2f1fd0	0.1710198

fcs1.bias f4 [256]
0	0x3ea7f46e	0.32803673
1	0x3bf6e68b	0.007534807
2	0x3df8a837	0.121414594
3	0xbe458722	-0.1928983
4	0x3ddf346c	0.108986706
5	0xbe12ab53	-0.14323168
6	0xbe45282e	-0.19253609
7	0xbe98058e	-0.29691738
8	0x3dc1d628	0.09464675
9	0xbda2ba53	-0.07945695
10	0x3df008c8	0.11720425
11	0xbe27ed07	-0.16399013
12	0x3e0f84c7	0.14015494
13	0xbe4da42e	-0.20082161
14	0x3da19a7f	0.07890796
15	0x3c640635	0.0139174955
16	0x3bb49b9e	0.005511715
17	0xbe4feefb	-0.20306008
18	0x3e0b0557	0.13576256
19	0xbd844819	-0.06459064
20	0xba38626e	-0.000703371
21	0xbde06799	-0.1095726
22	0x3e6ddc97	0.2322868
23	0xbd1c5abf	-0.03817248
24	0x3db7ab09	0.08968169
25	0xbb83ffbd	-0.004028289
26	0x3e42e2f3	0.19031887
27	0xbd9df310	-0.07712376
28	0x3d8dc732	0.06922759
29	0x3e1a3de0	0.15062666
30	0x3d924954	0.071428925
31	0xbe24bf8c	-0.16088694
32	0x3e8c9415	0.27456728
33	0xbe169eee	-0.14709064
34	0x3e0a8abc	0.13529485
35	0xbdc2e40f	-0.09516155
36	0x3df2d1a0	0.11856389
37	0xbde0177b	-0.109419785
38	0x3e83bd29	0.25730255
39	0xbdacfbae	-0.084464416
40	0xbcb8f357	-0.022576971
41	0xbde12774	-0.10993853
42	0xbe123dfe	-0.1428146
43	0xbe103a1a	-0.14084664
44	0xbe12013d	-0.14258285
45	0x3e8b2771	0.2717853
46	0x3c22517e	0.009907125
47	0xbd49828c	-0.049196765
48	0x3db1d772	0.08683671
49	0xbe09fc03	-0.13475041
50	0xbdeaea57	-0.11470478
51	0xbe0c6eda	-0.13714162
52	0x3eafc4ad	0.3432974
53	0x3dfab81a	0.12242146
54	0x3da950c6	0.082673594
55	0x3daf4f73	0.085600756
56	0xbcb426d8	-0.021991178
57	0x3e2d367b	0.16915314
58	0xbc644974	-0.013933528
59	0xbe5acdfc	-0.2136764
60	0x3eacd50b	0.3375629
61	0xbe360b62	-0.1777778
62	0x3d530a10	0.05152327
63	0xbe5213b2	-0.20515326
64	0xbe44e113	-0.19226484
65	0x3def59fa	0.116870835
66	0x3e4d8acf	0.20072483
67	0xbe4772db	-0.19477408
68	0x3d80b53f	0.0628457
69	0x3dd8bb5d	0.10582612
70	0x3e7e8c4e	0.2485821
71	0x3df159d1	0.11784709
72	0x3e44fa77	0.1923617
73	0xbe408f52	-0.18804672
74	0xbcc9b448	-0.024622098
75	0x3e1ec1f5	0.15503676
76	0x3cf543c1	0.029939534
77	0x3e19b8da	0.15011922
78	0xbda881a5	-0.08227853
79	0xbe112f95	-0.14178307
80	0x3cf3da09	0.029767053
81	0x3ea9f0fc	0.3319167
82	0x3dd621ed	0.104556896
83	0x3de97979	0.11400122
84	0xbdfb9428	-0.12284118
85	0xbe30ebab	-0.172774
86	0xbe61bdee	-0.22045109
87	0xbe35a119	-0.17737235
88	0xbd9ec66f	-0.07752692
89	0xbdae6f5d	-0.085173346
90	0x3ea9a88a	0.33136398
91	0xbd917747	-0.071028285
92	0xbda86731	-0.08222807
93	0xbe29e2f9	-0.1659049
94	0x3e5dc6c6	0.21657857
95	0x3e3f99e0	0.18711042
96	0x3c847494	0.01616887
97	0xbda4a372	-0.08038987
98	0xbe3916ae	-0.18075058
99	0xbd65d1d7	-0.056108322
100	0x3de8cc38	0.11367077
101	0x3d8a3ee1	0.067502744
102	0x3d82a55e	0.063791975
103	0x3e9ab1d3	0.30213794
104	0x3d3e4808	0.046455413
105	0xbe96cad5	-0.29451624
106	0xbd86e878	-0.06587309
107	0x3c27fe83	0.010253551
108	0x3e09eaf3	0.13468532
109	0x3e75547f	0.23958014
110	0xbe011701	-0.12606432
111	0x3d03c53d	0.032170523
112	0xbe599b19	-0.21250571
113	0xbe82f264	-0.25575554
114	0x3c9f0e80	0.019416094
115	0x3d0d63c6	0.03451898
116	0xbe0418ba	-0.12900057
117	0xbe0bdc6d	-0.13658305
118	0xbdcb3394	-0.09921947
119	0x3d5b789c	0.05358182
120	0xbe81cf7c	-0.2535361
121	0xbddd22b1	-0.107976325
122	0x3e0adbba	0.13560382
123	0xbe78d11b	-0.24298517
124	0x3d89e709	0.067335196
125	0xbbde185c	-0.006777806
126	0x3e68773b	0.22701733
127	0xbd7a0d97	-0.061048117
128	0xbef8f9fb	-0.4862822
129	0x3e0eeeaa	0.1395823
130	0xbcbf95b5	-0.023386816
131	0xbe8b635e	-0.2722425
132	0x3c634b33	0.013872909
133	0xbd39e2e0	-0.04538238
134	0xbe067009	-0.13128676
135	0xbe63adbc	-0.22234243
136	0x3e6b57db	0.22982733
137	0xbe189104	-0.14899069
138	0x3d8cca82	0.06874563
139	0xbcef0def	-0.029181449
140	0xbe54d54c	-0.20784491
141	0xbc8cb2bf	-0.017175077
142	0x3cc6c903	0.024265772
143	0xbe90a7fa	-0.28253156
144	0xbc78805e	-0.015167324
145	0x3b72c4f2	0.0037043658
146	0x3e54e5df	0.20790814
147	0xbd435834	-0.04769154
148	0x3e54cf94	0.2078231
149	0xbd8db71e	-0.069196925
150	0xbd5d15da	-0.053975917
151	0x3e635bdf	0.22203015
152	0x3d21e4c4	0.03952481
153	0x3e0dbe81	0.13842203
154	0x3d789d5b	0.06069694
155	0xbd65a416	-0.056064688
156	0xbe8b509c	-0.27209938
157	0x3e220be7	0.15824853
158	0x3d2f680e	0.042823844
159	0x3e5ec9a7	0.21756612
160	0x3e8f6ceb	0.28012785
161	0xbdd990cb	-0.1062332
162	0xbde423ab	-0.111396156
163	0x3e0269a7	0.12735616
164	0x3da1273b	0.07868811
165	0xbd4a5cf2	-0.049405046
166	0x3e6b874b	0.23000829
167	0x3ddaec8e	0.106896505
168	0xbd8f0877	-0.069840364
169	0x3d4ee33e	0.050509684
170	0xbe8c44b5	-0.2739617
171	0x3ea23251	0.31679013
172	0x3df8c210	0.121463895
173	0xbdd6b57e	-0.10483836
174	0x3e0e4f3f	0.13897417
175	0xbe1510bc	-0.14557165
176	0xbdd0d848	-0.101975024
177	0xbe2c7225	-0.16840418
178	0x3d3ad7fe	0.045616142
179	0x3cd9445a	0.02652185
180	0xbe1d1d47	-0.153432
181	0x3e9323a7	0.28738138
182	0xbdc2be25	-0.095089234
183	0x3b638f4d	0.0034722865
184	0x3ea2f75d	0.31829348
185	0x3e28a54e	0.16469309
186	0xbe97222c	-0.2951826
187	0xbe057b8d	-0.13035412
188	0xbd9d5c69	-0.076836415
189	0xbe2cedfc	-0.16887659
190	0xbde3c3d0	-0.11121333
191	0x3e0ed35d	0.13947816
192	0xbe5bfb72	-0.21482638
193	0x3dc57069	0.09640581
194	0x3e2d6ec2	0.16936782
195	0x3e4fb52b	0.20283954
196	0xbdd1350e	-0.102151975
197	0x3dddd475	0.108315386
198	0xbdf340d7	-0.118776016
199	0x3cff6306	0.031175148
200	0xbd620a0d	-0.055185366
201	0x3e168cc5	0.14702137
202	0xbdd99cf5	-0.1062564
203	0xbd99bd27	-0.07506781
204	0xbc2a0ec9	-0.010379502
205	0x3ddf476a	0.10902293
206	0x3eb46a6b	0.3523744
207	0xbe061d0b	-0.13097017
208	0x3e6c3858	0.23068368
209	0x3d8bd7c9	0.06828267
210	0x3e00c280	0.12574196
211	0x3e4eee1a	0.20208016
212	0xbe0e1703	-0.13875966
213	0xbc16d972	-0.009207116
214	0x3db41c91	0.08794511
215	0x3e336b1c	0.17521328
216	0x3e2a5ff0	0.1663816
217	0x3da5bd7d	0.08092783
218	0x3e6c54d0	0.23079228
219	0xbe6a13d1	-0.22859122
220	0x3e45dc52	0.19322327
221	0x3dc41464	0.09574202
222	0xbe1e7566	-0.15474471
223	0xbe77b80c	-0.24191302
224	0xbe67de3c	-0.2264337
225	0x3dfdd824	0.12394741
226	0x3e4223c3	0.18958955
227	0x3dac1a1c	0.084034175
228	0xbca1485b	-0.019687822
229	0x3d8fd17c	0.07022378
230	0xbe15e18e	-0.14636824
231	0xbcb9a45a	-0.022661377
232	0xbe3992c1	-0.18122388
233	0x3dc7246d	0.097237445
234	0xbe5dbc56	-0.21653876
235	0x3e6cc323	0.23121314
236	0xbe856ab8	-0.26057982
237	0x3db7d413	0.08975997
238	0xbc843b76	-0.016141634
239	0xbd15f640	-0.036611795
240	0x3e19d0d3	0.15021066
241	0x3bd66400	0.0065426826
242	0x3dfefa31	0.12450064
243	0x3e2c9dbc	0.16857046
244	0x3e5990a6	0.21246585
245	0xbdc2f21b	-0.09518834
246	0x3dd1b783	0.1024008
247	0xbe0ad1a4	-0.13556534
248	0xbc0c09ce	-0.0085472595
249	0x3e443f7b	0.19164841
250	0x3d801a6a	0.06255038
251	0x3e4b7c42	0.1987162
252	0x3e207c86	0.15672502
253	0x3e5a49f4	0.21317273
254	0x3e7a534b	0.24445836
255	0xbe74a2e0	-0.23890257

fc2.weight f4 [128, 256]
0	0x3c2629d3	0.010141808
1	0x3d5bc277	0.053652253
2	0x3d52bf58	0.05145201
3	0xbdd67f94	-0.10473552
4	0x3d009905	0.03139593
5	0xbcbfb981	-0.023403885
6	0xbd843875	-0.06456081
7	0xbdb05935	-0.08610765
8	0xbc889fb4	-0.016677715
9	0x3da0fe3a	0.0786099
10	0xbd048ef3	-0.03236289
11	0x3c52fd6d	0.012877804
12	0x3aa57ec9	0.0012626286
13	0x3c7d9799	0.015478038
14	0x3d2fca91	0.04291779
15	0xbd495c4a	-0.04916028
16	0x3d95d5fc	0.07316205
17	0xbd41b019	-0.04728708
18	0x3d65a5aa	0.056066193
19	0x3d906e4d	0.07052288
20	0xbd3beaa2	-0.04587806
21	0x3cb9dcbe	0.022688266
22	0xbd8ab054	-0.06771913
23	0xbc99ef5b	-0.018790891
24	0x3ae8555b	0.0017725633
25	0x3d34a835	0.044105727
26	0x3d3bd1ee	0.0458545
27	0x3d809d58	0.06280011
28	0x3b3d3d06	0.0028875484
29	0xbd17ffb8	-0.037109107
30	0xbd9d280a	-0.076736525
31	0xbd2344e0	-0.039860606
32	0xbcf4283f	-0.029804347
33	0x3d690a35	0.0568945
34	0xbc1771c7	-0.009243435
35	0x3d9d26bd	0.07673404
36	0x3dbda59c	0.09260103
37	0x3ca1de31	0.01975927
38	0x3bc29b93	0.005938956
39	0xbc8c14ba	-0.017099727
40	0x3d92775c	0.07151672
41	0xbd981806	-0.07426457
42	0xbc4e1728	-0.012578763
43	0xbd3d70ea	-0.04625026
44	0x3ce85a7c	0.028363459
45	0x3bf3f2e8	0.007444728
46	0xbdc736ca	-0.09727247
47	0x3d82b2d7	0.06381767
48	0x3d88e31d	0.066839434
49	0x3d6ebade	0.05828368
50	0xbda43638	-0.08018154
51	0x3de1a371	0.11017502
52	0xbd103df4	-0.035215333
53	0xbd3a1a0d	-0.045435
54	0xbe0bcd57	-0.1365255
55	0x3b7d8591	0.0038684348
56	0xbe1edd82	-0.15514186
57	0x3d33e267	0.043917086
58	0x3dc1bba9	0.094596215
59	0x3d73bbef	0.0595054
60	0xbbd2eee2	-0.0064371685
61	0xbdacafc6	-0.084319636
62	0x3d7af734	0.061270908
63	0xbdde1181	-0.10843182
64	0x3ca00847	0.019535197
65	0x3da24afb	0.07924458
66	0xbc90913f	-0.017647384
67	0xbd3fbc1f	-0.046810266
68	0xbe6fe4ba	-0.23427096
69	0x3cb8d79b	0.022563746
70	0x3d3dbea5	0.04632439
71	0xbca35056	-0.019935768
72	0x3c954248	0.018220082
73	0x3c95bd61	0.01827878
74	0x3d56644f	0.052341755
75	0x3d33fe08	0.043943435
76	0x3d0997ae	0.03359192
77	0x3ccabacc	0.024747275
78	0x3b03fcbc	0.0020139655
79	0x3cc96dbd	0.02458846
80	0x3d2dbec9	0.042418275
81	0x3d1cf307	0.038317706
82	0xbc8cc5a6	-0.01718409
83	0x3d0c99fa	0.03432653
84	0x3d8dfe19	0.06933231
85	0xbcf300dd	-0.029663498
86	0x3d580e4c	0.05274801
87	0x3d316c33	0.043316077
88	0xbdb9906b	-0.09060749
89	0xbd8e0369	-0.06934244
90	0x3d9a7ff5	0.07543937
91	0xbcab1a63	-0.020886606
92	0x3d2b5637	0.041830268
93	0xbbe25a8c	-0.0069077667
94	0xbc501041	-0.012699188
95	0x3d7e266d	0.062048364
96	0xbdb28681	-0.08717061
97	0xbca0ea32	-0.019642923
98	0x3d0cd979	0.034387086
99	0x3d12cc33	0.03583927
100	0x3df76700	0.120801926
101	0xbd673514	-0.056447104
102	0xbd2d420f	-0.042299327
103	0xbcef58e5	-0.029217193
104	0x3d01f4bf	0.03172755
105	0xbd0dfdc3	-0.034665834
106	0x3e33b266	0.17548522
107	0xbd83b41c	-0.064308375
108	0x3d549fe0	0.05191028
109	0x3dada48c	0.084786505
110	0x3daddea3	0.0848973
111	0xbd983bd0	-0.07433283
112	0x3dab361e	0.083599314
113	0xbe968de8	-0.2940514
114	0x3d0b2b0e	0.033976607
115	0xbb936ad1	-0.0044988175
116	0xbd0ed97e	-0.034875385
117	0x3cae83b8	0.021303043
118	0xbe4d9fff	-0.20080565
119	0xbcb150ae	-0.021644916
120	0xbe53be06	-0.20677957
121	0xbd9734f7	-0.07383149
122	0xbd2b93c2	-0.04188896
123	0xbcd3e042	-0.02586377
124	0xbb1b6c6c	-0.0023715748
125	0xbd901765	-0.07035712
126	0xbacd1497	-0.0015646395
127	0xbd906440	-0.07050371
128	0x3d69e69e	0.0571047
129	0xbde5d0d2	-0.1122147
130	0x3c5408cf	0.012941553
131	0xbd884fc8	-0.06655842
132	0xbc9b496e	-0.018955912
133	0xbdb39adf	-0.08769774
134	0x3ccb4f0a	0.024817962
135	0x3c3d7e01	0.011565686
136	0xbd79e0e4	-0.061005488
137	0xbd49235a	-0.04910598
138	0x3d8573b3	0.065162085
139	0x3c6fb315	0.014630099
140	0xbee6605f	-0.449954
141	0x3e2aa1ff	0.16663359
142	0x3d6ae4b2	0.057347007
143	0xbe545ef3	-0.20739345
144	0x3b22fe7f	0.002487093
145	0x3c203208	0.009777553
146	0xbd32ed10	-0.04368311
147	0xbd597892	-0.0530935
148	0xbd49729b	-0.049181562
149	0xbd9ea2ff	-0.07745933
150	0x3cc17028	0.02361305
151	0x3d5df54a	0.054189004
152	0xbbd505b1	-0.0065009226
153	0x3e26a470	0.16273665
154	0xbd862274	-0.0654954
155	0x3dab0b39	0.0835175
156	0xbd93623f	-0.07196473
157	0xbda4d5a8	-0.08048564
158	0xbd0ccd6d	-0.034375597
159	0xbde39b44	-0.11113599
160	0x3cbc2c39	0.022970306
161	0xbd7190b8	-0.058975905
162	0x3d14ed98	0.0363594
163	0x3ab5ceb4	0.0013870806
164	0xbcc9bb80	-0.02462554
165	0xbd41135f	-0.047137614
166	0x3c0ca011	0.008583085
167	0x3d610780	0.054938793
168	0x3dfaa128	0.12237769
169	0x3ce184b3	0.027529096
170	0x3c4fc16e	0.012680395
171	0xbd03e525	-0.03220095
172	0xbd5fe76d	-0.054664064
173	0xbcff2ac2	-0.031148318
174	0x3d8b21be	0.06793545
175	0x3c804578	0.015658125
176	0xbd4c60f2	-0.04989714
177	0xbc36606a	-0.011131385
178	0xbd57f343	-0.052722227
179	0xbc3ee0e0	-0.011650294
180	0xbde2d676	-0.110760614
181	0xbc7c3ea9	-0.015395799
182	0xbb077c55	-0.0020673473
183	0x3ddf3a25	0.10899762
184	0xbd82af0f	-0.06381046
185	0xbd15584b	-0.036461156
186	0xbd25ad46	-0.04044845
187	0xbd22755f	-0.039662715
188	0xbe5a6133	-0.21326141
189	0x3dda11ae	0.106479034
190	0xbde6c972	-0.112688914
191	0xbcf26e08	-0.029593483
192	0x3cbdd70c	0.023173831
193	0xbd6818d9	-0.05666432
194	0x3d5935c7	0.0530298
195	0x3d48c3ac	0.049014732
196	0xbe2bbe66	-0.1677185
197	0x3d6cc09b	0.05780087
198	0x3ddac51b	0.10682126
199	0x3d9fb9a2	0.077990785
200	0xbda4d101	-0.08047677
201	0xbcd670cd	-0.026176834
202	0xbd7a0e55	-0.061048824
203	0x3cf5cee3	0.030005878
204	0x3d0b5312	0.03401477
205	0xbd61780d	-0.05504613
206	0xbdbe2d0b	-0.09285935
207	0xbd608456	-0.054813705
208	0x3dd17c82	0.10228826
209	0xbd002b10	-0.031291068
210	0x3b0914b0	0.0020916872
211	0x3d4bb6f2	0.049735017
212	0x3d562a5a	0.052286483
213	0xbcd3a412	-0.02583507
214	0xbcce1304	-0.025155552
215	0x3ddc8d0c	0.1076909
216	0x3d517955	0.051141102
217	0x3c3dee7a	0.011592502
218	0x3d02117d	0.03175496
219	0xbd93b592	-0.07212366
220	0xbcc60921	-0.024174275
221	0x3dcd8a44	0.10036138
222	0xbe06e37e	-0.13172719
223	0x3c731f02	0.014838936
224	0x3c0fb410	0.008770958
225	0x3dab22b5	0.08356229
226	0x3dba06c7	0.09083324
227	0x3d6289be	0.055307142
228	0x3ddb3f55	0.10705439
229	0xbd1a3cbf	-0.03765559
230	0x3c7be633	0.015374708
231	0x3d839ca8	0.06426364
232	0xbd81843c	-0.0632405
233	0x3cbed7e3	0.023296302
234	0x3da29525	0.07938603
235	0xbdb9cd57	-0.090723686
236	0x3cacbdc6	0.021086585
237	0xbcfb94a6	-0.03071053
238	0x3d551839	0.052025054
239	0x3dbc63ec	0.09198746
240	0xbb7517bb	-0.0037398178
241	0xbce798e1	-0.02827114
242	0x3c39b831	0.011335419
243	0xbdfb6f87	-0.122771315
244	0x3d95db5a	0.073172286
245	0x3d22d6c9	0.039755616
246	0xbd52e6e6	-0.051489733
247	0x3d393687	0.045218017
248	0xbd5b6756	-0.053565346
249	0xbda856ad	-0.08219657
250	0x3d6b8ad7	0.057505455
251	0x3d2ec0dd	0.042664398
252	0xbd401f11	-0.046904627
253	0x3c90c225	0.0176707
254	0x3d8e513a	0.069490865
255	0x3d3166ea	0.043311037

fc2.bias f4 [128]
0	0xbcb4369b	-0.021998694
1	0xbe3152fb	-0.17316811
2	0x3d20d2e5	0.039263625
3	0x3db119d0	0.086475015
4	0x3c96c95a	0.018406559
5	0xbe273b95	-0.16331322
6	0xbbec8699	-0.0072181937
7	0x3d86eee1	0.06588531
8	0x3d297152	0.041367836
9	0x3d4a73e1	0.049426917
10	0x3e0ae1a6	0.1356264
11	0x3d58e6e2	0.052954562
12	0x3df714bc	0.12064502
13	0xbcc29264	-0.023751445
14	0x3dd48afb	0.10378071
15	0x3d6c31ca	0.05766467
16	0xbd37cf15	-0.044875223
17	0xbe215fa8	-0.15759146
18	0x3db74d2d	0.08950267
19	0xbd89b914	-0.06724754
20	0x3e065682	0.13118938
21	0x3d3f5141	0.04670835
22	0x3da32018	0.07965106
23	0xbdb3f3b6	-0.087867185
24	0x3e1a1e60	0.1505065
25	0x3a8bedae	0.0010675692
26	0xbd4a3d9b	-0.049375158
27	0xbd0b7e14	-0.034055784
28	0xbdbe379a	-0.09287949
29	0x3dbfb0e9	0.09359915
30	0xbdcec200	-0.10095596
31	0x3e21b842	0.15792945
32	0xbdb7d111	-0.08975423
33	0xbcf8bfb4	-0.030364849
34	0x3cb336f4	0.02187679
35	0xbc23d173	-0.009998667
36	0x3d4d6fcf	0.050155457
37	0xbe0b11ed	-0.13581057
38	0x3dcd41eb	0.100223385
39	0xbcd8b770	-0.026454657
40	0xbd077e02	-0.033079155
41	0x3d521255	0.051287014
42	0x3db59dcc	0.08867988
43	0xbcea8993	-0.028630054
44	0xbc14420c	-0.00904895
45	0x3d8b96a6	0.06815843
46	0x3e258c54	0.16166812
47	0xbdaf32f0	-0.085546374
48	0xbd4b48be	-0.04962992
49	0xbd1fc303	-0.039004337
50	0xbe371f75	-0.17883094
51	0xbde042fc	-0.10950276
52	0x3dc08ed2	0.09402241
53	0xbd819013	-0.06326308
54	0x3c29a630	0.010354564
55	0x3e2982d4	0.16553813
56	0x3de22f88	0.11044222
57	0x3df7d9a5	0.12102059
58	0x3ddb5523	0.10709598
59	0xbdf8ed35	-0.12154619
60	0x3de07a36	0.1096081
61	0xbdacb79f	-0.084334604
62	0xbd8b80fe	-0.06811713
63	0x3de3148f	0.110879056
64	0xbe240dc8	-0.16020882
65	0x3e24374f	0.16036724
66	0x3e0d9077	0.1382464
67	0x3d23ef53	0.04002316
68	0x3e3609e6	0.17777213
69	0x3c5eeb70	0.013605937
70	0xbd4a84da	-0.049443103
71	0xbd23500b	-0.039871257
72	0xbdb9501a	-0.09048481
73	0xbe1686e1	-0.1469989
74	0x3d90f1b3	0.070773505
75	0x3e118c21	0.14213611
76	0xbd10eddb	-0.035383087
77	0xbe2dec6c	-0.16984719
78	0x3de93d04	0.11388591
79	0x3dd176fb	0.10227772
80	0x3dba6b24	0.09102467
81	0xbe43ad1f	-0.19109009
82	0x3c9c9a44	0.019116528
83	0x3d7be1e1	0.06149471
84	0x3d5362cc	0.051607892
85	0x3d96a7ec	0.07356247
86	0x3e17ccab	0.14824168
87	0x3c82eaa2	0.015981022
88	0x3a0ec59b	0.00054463156
89	0x3dcb3c78	0.09923643
90	0x3e013426	0.1261755
91	0xbd2d4ea4	-0.042311326
92	0xbd3fbc6a	-0.046810545
93	0x3de6c660	0.11268306
94	0x3e1df17e	0.15424153
95	0x3d686a19	0.056741808
96	0xbe363f7f	-0.1779766
97	0x3dcca11b	0.09991666
98	0x3d8f7f2d	0.07006679
99	0x3cdff5b1	0.027338834
100	0x3db2d20b	0.08731469
101	0x3de3df2c	0.11126551
102	0xbcdaa70d	-0.026690984
103	0x3e0788e9	0.13235821
104	0xbda4cf65	-0.0804737
105	0xbd8d7f5b	-0.06909057
106	0x3e2090f7	0.156803
107	0x3d7fe963	0.062478434
108	0xbd4c28bd	-0.04984354
109	0x3d971239	0.073765226
110	0x3e11dbf5	0.14244063
111	0x3d65d590	0.056111872
112	0xbe41ab16	-0.1891292
113	0x3dba9ec8	0.09112316
114	0x3c7050cc	0.014667701
115	0x3ded39a9	0.115832634
116	0x3cedfdf2	0.029051755
117	0xbdfc8a4c	-0.123310655
118	0xbcb3d771	-0.021953316
119	0x3d0d72d8	0.03453335
120	0x3d0e7867	0.034782793
121	0xbde5a84f	-0.11213743
122	0x3dbe25a3	0.092845224
123	0x3d97a632	0.07404746
124	0x3e397248	0.18110001
125	0xbd7aaee4	-0.061201945
126	0xbe067ddb	-0.13133948
127	0xbba100ce	-0.004913426

fc3.weight f4 [1, 128]
0	0x3d5e76bd	0.054312456
1	0xbd2ddfd0	-0.042449772
2	0x3d0b20ee	0.03396695
3	0x3dd24f4e	0.102690324
4	0x3e35baf5	0.177471
5	0xbca9dba9	-0.020734625
6	0xbd8ba243	-0.06818058
7	0x3cde5c08	0.027143493
8	0x3d979b09	0.074026175
9	0x3cdd989c	0.027050309
10	0x3d023938	0.03179285
11	0x3d0927b4	0.03348513
12	0x3db67c28	0.089104
13	0xbd03ac6a	-0.03214685
14	0x3ca058e8	0.019573644
15	0x3cc148b5	0.02359424
16	0x3e74bc34	0.23899919
17	0xbcecd6f5	-0.028911093
18	0x3ce5a63d	0.02803337
19	0xbe6bbbbe	-0.23020837
20	0x3d66501d	0.056228746
21	0x3c4b996d	0.012426716
22	0x3d1f4f21	0.038893823
23	0xbcb53606	-0.022120487
24	0x3d01af2f	0.03166121
25	0xbc9901fd	-0.018677706
26	0xbd9a22d0	-0.07526171
27	0xbd30de6a	-0.04318086
28	0x3e4dda7b	0.20102875
29	0x3c6e447f	0.014542698
30	0xbd400522	-0.046879895
31	0x3ce53ade	0.027982172
32	0xbcf4b0aa	-0.029869396
33	0x3e1c16af	0.15243028
34	0x3cec1181	0.02881694
35	0x3dbd515a	0.09244032
36	0x3d577eb1	0.052611057
37	0xbcbef38d	-0.023309493
38	0x3c6c31a6	0.014416134
39	0x3da1c7dc	0.07899448
40	0xbd02ba11	-0.031915728
41	0x3d299cda	0.04140935
42	0x3d056567	0.032567408
43	0xbd8e8b0f	-0.06960117
44	0xbd9d88c1	-0.07692099
45	0x3cb6691b	0.022266915
46	0x3c952631	0.018206688
47	0xbd0feaa4	-0.03513588
48	0xbca71293	-0.020394599
49	0xbd3b50d3	-0.045731377
50	0xbcf8ae83	-0.030356651
51	0xbd269403	-0.0406685
52	0x3e41e6e6	0.18935737
53	0xbd5d4e69	-0.054029856
54	0x3e864831	0.26226953
55	0x3c00c541	0.007859529
56	0x3d282b0f	0.04105669
57	0x3c73a925	0.01487187
58	0x3ca86077	0.02055381
59	0xbcf43f5a	-0.029815365
60	0x3c6bffa3	0.01440421
61	0xbca5468c	-0.020175241
62	0xbd1b28e7	-0.037880804
63	0x3ceb41c0	0.028717875
64	0xbeb6532e	-0.35610336
65	0x3d725770	0.05916542
66	0x3d9408bb	0.07228228
67	0x3cc89773	0.02448628
68	0x3d03ec11	0.032207552
69	0x3d924701	0.07142449
70	0x3e8ae05b	0.27124295
71	0xbe22c58a	-0.15895668
72	0xbd41f5d6	-0.047353588
73	0xbe292f5b	-0.16521971
74	0x3d6840db	0.056702476
75	0x3ce088b8	0.027408943
76	0xbe769d38	-0.24083412
77	0xbe936372	-0.28786808
78	0x3cbe56ba	0.023234714
79	0x3da096de	0.07841276
80	0xbe36395e	-0.17795321
81	0xbed7a4cf	-0.42117926
82	0xbd055ea6	-0.032560967
83	0x3d44f550	0.04808551
84	0x3db17de6	0.08666591
85	0x3d19983d	0.0374987
86	0x3c80aac4	0.015706427
87	0x3d616676	0.055029355
88	0x3e087c42	0.1332865
89	0x3d9816ec	0.07426247
90	0x3ccc69a0	0.02495271
91	0xbdec5e3e	-0.11541413
92	0xbdbd4ad2	-0.092427865
93	0x3cccd0f1	0.025001975
94	0x3d0360cc	0.032074735
95	0x3d909898	0.07060355
96	0xbdaf2ce9	-0.08553488
97	0x3daedb18	0.085378826
98	0x3db6a5eb	0.08918365
99	0x3d443b40	0.047908068
100	0x3c276855	0.010217746
101	0x3d2698bf	0.040673014
102	0xbdd313ac	-0.103064865
103	0x3c43ebc3	0.011958065
104	0xbd7abe17	-0.06121644
105	0xbd02bf24	-0.031920567
106	0x3cdf6303	0.027268892
107	0x3dea948e	0.11454116
108	0x3cfa3138	0.030541047
109	0x3da2b45b	0.07944556
110	0x3c7b4b97	0.015337846
111	0x3cf853a2	0.030313317
112	0xbe27115d	-0.16315217
113	0x3e004207	0.12525187
114	0x3c96f96c	0.01842948
115	0x3c9396c5	0.018016228
116	0x3da46996	0.080279514
117	0xbda4947b	-0.08036133
118	0xbd6d8ce5	-0.057995696
119	0x3d2c5e9c	0.042082414
120	0x3c85c7c7	0.016330613
121	0xbd9b6fe7	-0.07589703
122	0x3d0708f0	0.032967508
123	0x3e5af849	0.21383776
124	0x3ca3ea6a	0.020009238
125	0xbd078168	-0.033082396
126	0x3d9d18bb	0.076707326
127	0xbd8bd636	-0.06827967
